…
  desc: null
  value: 0.5
max_grad_norm:
  desc: null
  value: 0.5
rollout_buffer:
  desc: null
  value: <stable_baselines3.common.buffers.RolloutBuffer object at 0x7f3837edca10>
batch_size:
  desc: null
  value: 64
n_epochs:
  desc: null
  value: 10
clip_range:
  desc: null
  value: <function constant_fn.<locals>.func at 0x7f37e3635da0>
clip_range_vf:
  desc: null
  value: None
normalize_advantage:
  desc: null
  value: 'True'
target_kl:
  desc: null
  value: None
policy:
  desc: null
  value: "CustomPolicy(\n  (features_extractor): CustomFeatureExtractor(\n    (network):\
    \ Sequential(\n      (0): Linear(in_features=17, out_features=64, bias=True)\n\
    \      (1): ReLU()\n      (2): Linear(in_features=64, out_features=124, bias=True)\n\
    \      (3): ReLU()\n      (4): Linear(in_features=124, out_features=124, bias=True)\n\
    \      (5): ReLU()\n      (6): Linear(in_features=124, out_features=64, bias=True)\n\
    \      (7): ReLU()\n    )\n  )\n  (pi_features_extractor): CustomFeatureExtractor(\n\
    \    (network): Sequential(\n      (0): Linear(in_features=17, out_features=64,\
    \ bias=True)\n      (1): ReLU()\n      (2): Linear(in_features=64, out_features=124,\
    \ bias=True)\n      (3): ReLU()\n      (4): Linear(in_features=124, out_features=124,\
    \ bias=True)\n      (5): ReLU()\n      (6): Linear(in_features=124, out_features=64,\
    \ bias=True)\n      (7): ReLU()\n    )\n  )\n  (vf_features_extractor): CustomFeatureExtractor(\n\
    \    (network): Sequential(\n      (0): Linear(in_features=17, out_features=64,\
    \ bias=True)\n      (1): ReLU()\n      (2): Linear(in_features=64, out_features=124,\
    \ bias=True)\n      (3): ReLU()\n      (4): Linear(in_features=124, out_features=124,\
    \ bias=True)\n      (5): ReLU()\n      (6): Linear(in_features=124, out_features=64,\
    \ bias=True)\n      (7): ReLU()\n    )\n  )\n  (mlp_extractor): MlpExtractor(\n\
    \    (policy_net): Sequential(\n      (0): Linear(in_features=64, out_features=64,\
    \ bias=True)\n      (1): Tanh()\n      (2): Linear(in_features=64, out_features=64,\
    \ bias=True)\n      (3): Tanh()\n    )\n    (value_net): Sequential(\n      (0):\
    \ Linear(in_features=64, out_features=64, bias=True)\n      (1): Tanh()\n    \
    \  (2): Linear(in_features=64, out_features=64, bias=True)\n      (3): Tanh()\n\
    \    )\n  )\n  (action_net): Linear(in_features=64, out_features=8, bias=True)\n\
    \  (value_net): Linear(in_features=64, out_features=1, bias=True)\n)"
