…
  value: <stable_baselines3.common.buffers.ReplayBuffer object at 0x7f287978bfd0>
use_sde_at_warmup:
  desc: null
  value: 'False'
exploration_initial_eps:
  desc: null
  value: 1.0
exploration_final_eps:
  desc: null
  value: 0.05
exploration_fraction:
  desc: null
  value: 0.1
target_update_interval:
  desc: null
  value: 10000
_n_calls:
  desc: null
  value: 0
max_grad_norm:
  desc: null
  value: 10
exploration_rate:
  desc: null
  value: 0.0
policy:
  desc: null
  value: "DQNPolicy(\n  (q_net): QNetwork(\n    (features_extractor): FlattenExtractor(\n\
    \      (flatten): Flatten(start_dim=1, end_dim=-1)\n    )\n    (q_net): Sequential(\n\
    \      (0): Linear(in_features=21617, out_features=64, bias=True)\n      (1):\
    \ ReLU()\n      (2): Linear(in_features=64, out_features=64, bias=True)\n    \
    \  (3): ReLU()\n      (4): Linear(in_features=64, out_features=256, bias=True)\n\
    \    )\n  )\n  (q_net_target): QNetwork(\n    (features_extractor): FlattenExtractor(\n\
    \      (flatten): Flatten(start_dim=1, end_dim=-1)\n    )\n    (q_net): Sequential(\n\
    \      (0): Linear(in_features=21617, out_features=64, bias=True)\n      (1):\
    \ ReLU()\n      (2): Linear(in_features=64, out_features=64, bias=True)\n    \
    \  (3): ReLU()\n      (4): Linear(in_features=64, out_features=256, bias=True)\n\
    \    )\n  )\n)"
q_net:
  desc: null
  value: "QNetwork(\n  (features_extractor): FlattenExtractor(\n    (flatten): Flatten(start_dim=1,\
    \ end_dim=-1)\n  )\n  (q_net): Sequential(\n    (0): Linear(in_features=21617,\
    \ out_features=64, bias=True)\n    (1): ReLU()\n    (2): Linear(in_features=64,\
    \ out_features=64, bias=True)\n    (3): ReLU()\n    (4): Linear(in_features=64,\
    \ out_features=256, bias=True)\n  )\n)"
q_net_target:
  desc: null
  value: "QNetwork(\n  (features_extractor): FlattenExtractor(\n    (flatten): Flatten(start_dim=1,\
    \ end_dim=-1)\n  )\n  (q_net): Sequential(\n    (0): Linear(in_features=21617,\
    \ out_features=64, bias=True)\n    (1): ReLU()\n    (2): Linear(in_features=64,\
    \ out_features=64, bias=True)\n    (3): ReLU()\n    (4): Linear(in_features=64,\
    \ out_features=256, bias=True)\n  )\n)"
batch_norm_stats:
  desc: null
  value: '[]'
batch_norm_stats_target:
  desc: null
  value: '[]'
exploration_schedule:
  desc: null
  value: <function get_linear_fn.<locals>.func at 0x7f2825547920>
